dqn/solution/checkpoint.pth (torch_old, 21069 bytes, 6 tensors)

fc1.weight f4 [64, 8]
00000000: 61de c3be 1865 593d 70ae c5be 056c a5bd
00000010: a5ba 323f 6f92 223e fdaa 533d 1585 d53e
00000020: 696d 81be a44b 7bbf 78da 34be 5b94 12bf
00000030: cfa5 9fbe d146 77be 24b0 84be eb26 62bc
00000040: b7ae 94be 1e41 833d 14b6 383e cf0f 293f
00000050: 7ef8 de3e 5456 613f 7d8b 1f3d a095 a83e
00000060: 8cb3 433d 398c 9fbe 525f 9f3f 1112 d63b
00000070: 7b85 71bf 4867 52be 92e3 f3bd 82db bb3e
00000080: d4ef 00be 931e 7fbf f9fa 16bf 913b 69bf
00000090: 72a7 b83e 3c3a 6c3e d48f e73c adb9 8c3e
000000a0: 5284 37bd 6303 08bf 397e a33e 2eb0 47bf
000000b0: 5e56 d6be 3a50 9ebe b87b 133e cb85 a53e
000000c0: efee 07bf 2203 1bbe e516 8f3d 6930 7cbd
000000d0: bf19 1e3f 4397 303f 9147 653e ab4a 11bf
000000e0: af38 43be c52d 9bbf feb4 09bf f3b8 4abf
000000f0: c54b 323f 9841 293e 4cbd 86bd 8e18 713e
00000100: a583 bc3e 3ff9 82bd 016b 213e d5c3 2dbe
00000110: 9f7c a23c c9b1 6a3f 1a97 afbd dc0c 3fbf
00000120: d26f 063f c223 843e c848 c53e da5e b83e
00000130: 4e95 66be 772a 5cbf 5ff0 4bbd 76da 37be
00000140: b47c 82be 2a75 2f3f 2c31 8f3e 5da4 b9bf
00000150: 2f2e 153e 74e3 cfbd a583 953e 06ed 72be
00000160: d78b 8f3d 4c1c 72be 7f9d 2abe 4f8d 0d3f
00000170: d74e 683f d5e0 183f c52f debe 9427 5fbd
00000180: 7143 34bd 3ace 083e 3087 c9bd 6ca8 03bf
00000190: 4954 d53e 581a 003f c07b 763e 5a88 703e
000001a0: 924d 04be 18c7 72be eb98 87be 8485 1ebf
000001b0: b5d4 323e d539 b43d cff6 0d3e 3ee6 e23e
000001c0: 4b65 a1be 8558 053f 1d3d 4c3f 5c3b b6bf
000001d0: 9502 09bf a6aa a3be fe48 c93e e323 d9be
000001e0: 4872 023f dce2 263e 76ce 9fbd 77dc 13be
000001f0: 0e17 b6be eeb0 67bf 2fb0 14be ebb9 9c3e
00000200: b891 37bf a65c 4ebe 56d5 b6be 6202 f7be
00000210: d9de a8be c0ae 48be 2984 6f3e 9de5 e13d
00000220: d9d7 0dbf da86 4b3d 2b61 f43d 6ce3 e13d
00000230: 3d80 aa3e 42a8 3a3f f113 143f d165 89be
00000240: 0977 ccbe f819 babe 6070 903e 97f1 abbd
00000250: 0a38 d2be 043d cfbe 95aa 8bbe 2fb4 2a3d
00000260: b1bc cabd 5432 063f 1b4a cc3d 8d04 55bf
00000270: cd59 f33e 473e 98bf 3d6a 703d 44cf 86be
00000280: 093f 603e d9fb 26bf ca2b 29be a546 53bf
00000290: 117c b63e 9114 383e b325 9cbe 7b73 423e
000002a0: 929a c13e d1b6 8abf f544 943f df14 ffbe
000002b0: 6af9 d43e 22db daba be7b 6b3d 0cf5 2c3e
000002c0: 6194 60be f40f 59bf b97f f33e 48ec 45bf
000002d0: 511d 87be 0690 61bd dbb3 723e 0c5c 543e
000002e0: 8331 f33e c206 0bbe 0540 ba3e 32a7 99be
000002f0: deb0 75bf 870a 14bd 4701 123f e6c0 823e
00000300: 0e3f 89be ba9d d7be e921 29bf 04d3 abbe
00000310: 509c 1f3f 525a f83d d1d1 2bbd a1b3 863e
00000320: e77b ad3d a628 c93d 3e94 53be 16ec 1abe
00000330: 0e09 0c3b 226c 0a3f eac2 843e a574 b83e
00000340: 00a0 bc3e 6620 28bf 7e19 313f 03a7 0abf
00000350: a754 c5be 6446 073e c82e b63d aba1 3f3d
00000360: 553a 063f c584 6bbf 86a9 a43f d652 3dbf
00000370: fc6c 8ebd 2b37 413e 2c36 6c3d 203a 30be
00000380: b1af 28bb b5ce 20be f835 35c0 a018 26bf
00000390: 0660 14bf 79d5 b73d 3f41 013d eff4 cc3e
000003a0: 1bce 9dbe 16c5 4b3e 64b2 d03f e846 83bf
000003b0: d990 49bd 67f9 04bf a065 6abd 4c23 5b3e
000003c0: f944 903d 1e6a 42bd d671 ffbd 0ecf 0fbd
000003d0: 6176 5fbe 195f 48bf e08a 703e bac1 e53e
000003e0: b090 6bbe edfe a0bf deba 07bf 6f69 b6be
000003f0: 0a76 0b3f d11d 8f3d 7914 9ebe 08e3 ed3d
-0.382556 0.053074926 -0.38609648 -0.08077244 0.69816047 0.15876172 0.05167674 0.41703096
-0.25278786 -0.98162293 -0.17661464 -0.5725762 -0.3118119 -0.24148108 -0.25915635 -0.013803224
-0.29039547 0.064089045 0.18038207 0.66039747 0.4354896 0.8802235 0.038951386 0.32926655
0.04777865 -0.3116167 1.2450964 0.0065329154 -0.943443 -0.20547211 -0.1190864 0.3669091
-0.12591487 -0.9965603 -0.58976704 -0.91106516 0.3606525 0.2306909 0.028266825 0.2748541
-0.044803925 -0.5313017 0.31932238 -0.78003204 -0.41862768 -0.30920583 0.14402664 0.32328638
-0.5309896 -0.15137914 0.06986789 -0.061569605 0.61758035 0.6898081 0.22390582 -0.5675456
-0.19064592 -1.2123343 -0.537918 -0.7918846 0.69646865 0.16528928 -0.06579074 0.23544523
0.36819187 -0.06395196 0.15763475 -0.16969235 0.019834815 0.9167753 -0.08573742 -0.74628997
0.52514374 0.2580853 0.3853209 0.36009866 -0.22517893 -0.86002296 -0.049789783 -0.1795443
-0.25485766 0.68538153 0.27967203 -1.4503285 0.14568399 -0.10150805 0.29202 -0.2372323
0.07009094 -0.23643607 -0.16661642 0.55293745 0.907453 0.59718066 -0.4339582 -0.054481104
-0.04400963 0.13359919 -0.09840238 -0.51428866 0.41665867 0.500402 0.24070644 0.23489514
-0.12920216 -0.2370876 -0.26483855 -0.6192248 0.17463954 0.08800093 0.13863681 0.44316286
-0.31522593 0.52088195 0.7978075 -1.4236865 -0.53519565 -0.31966132 0.393135 -0.42410192
0.5095563 0.16297477 -0.07803051 -0.1443957 -0.35564464 -0.9050435 -0.14520334 0.30610594
-0.71706724 -0.2015253 -0.35709637 -0.48244005 -0.3298252 -0.19597912 0.23390259 0.110301234
-0.5540748 0.04968915 0.11932596 0.110297054 0.33300963 0.7291299 0.5784293 -0.26835492
-0.39934567 -0.36347938 0.28210735 -0.08395689 -0.4105838 -0.4047624 -0.2727858 0.041675743
-0.09899271 0.52420545 0.09975072 -0.8321007 0.4752945 -1.1894006 0.058695067 -0.26330006
0.21899046 -0.6522804 -0.1652061 -0.8252967 0.3564153 0.17976595 -0.30497512 0.18989365
0.3781324 -1.0837041 1.1583544 -0.4982061 0.41596538 -0.0016697387 0.057491057 0.16890353
-0.21931602 -0.8478997 0.47558382 -0.7731366 -0.26389554 -0.055068992 0.23701422 0.20738238
0.47498712 -0.13576797 0.36376968 -0.30010372 -0.95973 -0.036142852 0.570332 0.25537795
-0.2680592 -0.42112523 -0.6606737 -0.3355943 0.6234789 0.12126602 -0.041948143 0.2630892
0.08470898 0.09822206 -0.20662019 -0.15129122 0.0021367702 0.5407125 0.25929958 0.36026493
0.3684082 -0.65674436 0.69179523 -0.5416109 -0.38541147 0.13210446 0.088956416 0.046785038
0.5243276 -0.91999465 1.2864234 -0.7395452 -0.06954381 0.18868701 0.05766885 -0.17209673
-0.0025739486 -0.15703852 -2.831419 -0.64881325 -0.5795902 0.089762636 0.031556364 0.4003062
-0.30821308 0.19899401 1.630444 -1.0256014 -0.049210403 -0.5194306 -0.057225823 0.21400183
0.070444055 -0.047464482 -0.12472884 -0.035109572 -0.21822502 -0.7827011 0.23490477 0.44874364
-0.23004413 -1.2577797 -0.5301951 -0.35627314 0.5447699 0.06988109 -0.30874994 0.116155684

fc1.bias f4 [64]
00000000: a9f9 b2be 7dbf fcbe f52d a1be fa51 77be
00000010: f9b9 a9be 3a5e 19be b229 803e 298f 84be
00000020: 2b24 e3bc b64f 203e 0548 243f c535 12bf
00000030: 832a 943d e204 51be b975 cf3e 2c96 adbe
00000040: 83f6 a2bd 5919 0abe 8f60 b03e a7fc ac3e
00000050: 4d78 fdbe 274a dfbe f665 aebe 5be3 8bbd
00000060: 0462 8bbe e638 a5be 4cbc 88be 4252 52be
00000070: 4b38 073e 4c50 e6bd 46ec 8fbc a3ee c6be
00000080: 7c8c 82be 5b1b dd3e 953d 10be 90bb 53bd
00000090: c32c b83c c266 9f3c 9877 b93d f6b7 c0be
000000a0: 7897 9d3e 5156 1abe 7157 9d3e 50af 013e
000000b0: 679a 883e d89c 0ebe 097b 833e 6ad8 543e
000000c0: ae5e e83d e22b f73c e937 673e a296 533e
000000d0: 8847 8dbe 44ef 1d3f 0c19 5fbe 2dc5 00be
000000e0: 0916 0cbe 493e a3be 08ea 073f 933b b23d
000000f0: e857 86be c4d8 02be dd82 813e 1e67 b13e
-0.349561 -0.49364844 -0.31480375 -0.24152365 -0.33149698 -0.14977351 0.2503181 -0.25890473
-0.027727207 0.15655407 0.64172393 -0.57113296 0.07234671 -0.20412019 0.40519503 -0.33903635
-0.07957175 -0.13486232 0.34448668 0.33786508 -0.49505845 -0.4361126 -0.34062165 -0.06830474
-0.27223217 -0.32269973 -0.2670616 -0.20539191 0.13205068 -0.11245784 -0.017568719 -0.3885394
-0.25497806 0.43184933 -0.14085992 -0.051692545 0.022482282 0.019458178 0.09056014 -0.3764035
0.30779624 -0.1507199 0.30730775 0.12664533 0.266803 -0.13927019 0.25679806 0.2078568
0.11346184 0.030172292 0.22579922 0.2066293 -0.27593637 0.61693215 -0.21786898 -0.12575217
-0.1368028 -0.31883457 0.5309148 0.08702769 -0.26238942 -0.12778002 0.25295153 0.34648985

fc2.weight f4 [64, 64]
00000000: 7252 1e3e 1499 493e 5d83 c03e e1aa 193f
00000010: 705a 8e3e cc32 ae3d 08ec 083f 1e05 0b3f
00000020: 0010 e03d 5837 0f3f 53ff d43d 348c 7f3f
00000030: c969 583e 9e90 543e 441a 553e 17c5 f33e
00000040: e058 8f3e 1a48 e83e 212b 743e 8421 d6bd
00000050: 1fc3 a23e 0276 1e3f e59f f93e bf3c 983e
00000060: 672e 603e ea3b 27bd dafa 273f 8667 083f
00000070: 9943 82be 83b6 6abe ff87 aa3e 324d 523f
00000080: c7db 6f3e b816 7a3e 8d64 53be 246d 283e
00000090: 7d1b b8be efcc 463e 21c2 babe 8b81 883f
000000a0: 12ad 513e 49e0 3d3d 720e cd3e d9fa 18be
000000b0: 08f1 07bc d9dc b63e 0899 4b3f c24f 4e3d
000000c0: fa5a 0cbd 3c79 e1bd 4cab ae3d a822 1abe
000000d0: 89ca 073e 0020 05be 56ed 1c3f 42b3 eb3d
000000e0: 587b 963e 3904 afbd 685e 633d 6c61 a9be
000000f0: 5db3 e13e 47fc 693e 980c 06be 0fc1 f6be
00000100: e0e9 ac3d 0c2f 3b3f 3290 c53e e16b 873e
00000110: bd68 363e e2b6 d93e 50ec d73e 5f1d f73e
00000120: 5baf e13e 1874 b5bd ecaa 163e 4bb0 813f
00000130: 471a 543e 5591 7fbb 6817 c23d e74c 02be
00000140: e7c5 a13e 2012 f43e 0d57 16be 8055 dbbe
00000150: 101c 243f 0163 113e a06a 163f 9760 e03d
00000160: 46b1 af3e ae0e e63d 2b9e 1e3f cedd b03e
00000170: af1e 90bd 0e7c c93e 1d19 e7be 5dac 8a3f
00000180: 7a83 443e 7cbf d5ba a954 ebbe c346 063f
00000190: 0663 1ebf bc31 3d3e dad6 12be 723d b93e
000001a0: 4b49 2d3e 49c6 37be 0a96 b7bc 849b 8e3a
000001b0: 1544 d93e 2e63 a33e 51ed a1bf 828d 7a3d
000001c0: cacf be3d 1a5c 45be c3c2 28bf 8599 5d3e
000001d0: 304f e03c 9a83 7cbd 5c3b 733f f096 97bc
000001e0: 6268 143e 0dcf bdbe 44cc 0dbe 9c12 ab3e
000001f0: 6094 523e d32e a73e 793f 66be 6a88 86be
00000200: 0639 86bd bf83 913e 19da 8bbc 0a1b 783e
00000210: 21b0 99be 2e88 8a3e 5561 2a3d 98ae b6be
00000220: 531e c33c b8e4 f13e 4bfd 0b3e eabf 91be
00000230: 2d8a 583c 53de 433d 725b 9c3e 0013 063c
00000240: f869 703e 9c1e ecbe 813b a33d 99b9 48bd
00000250: ba79 e53d a187 cbbd 1464 d83e c9ed dfbd
00000260: 5fe5 65be 7daf d1bd 3471 8fbd c4c9 adbd
00000270: 8e45 efbf 9ff1 0e3f 08c3 95bd bdcc 05bd
00000280: f918 903d 570d 5bbe d5cd aebf 1f16 ebbe
00000290: 4705 3abf d241 3e3e 891b ca3e 4584 c7be
000002a0: a20b 18bd f473 87bd 016d 043f 1cbd 073f
000002b0: 2516 a03f 354c 9ebf d22b afbe 6bfa 0f3f
000002c0: b596 823f 651f 633f a3c9 8abe 0545 5dbf
000002d0: 469c 8abe fe4e f6bc 83cb 203d 3817 bebe
000002e0: 212f f73d 765e 643e 61c7 2cbe 171c a43e
000002f0: da33 063f 6da4 233e eddf 0e3d 4105 3e3e
00000300: 8600 e5bc 8c22 993e 52ee 6b3e 2a92 9b3e
00000310: cf49 043f 8ee1 d63e 8e97 063f 8354 e53e
00000320: f8c3 e53e 6fd7 2dbb bc9f 313e 6d42 053f
00000330: ab10 c0bb 89c7 893e 72e9 343e 0ab0 1a3f
00000340: bab3 d43e 807c 983e 2cec 423e 55b9 85be
00000350: ed0b a23e 3e08 e73e 272c 943e 8f5c ca3e
00000360: a6f7 d73e 8cc5 093d 45e5 233f d53f 443f
00000370: f437 15be 19a8 4dbe 9d23 c43e dcab 2e3f
00000380: fd94 4e3e 47bb 6ebd 2f90 873d f163 883e
00000390: 6ba4 44bf 768b c33e daa0 a33e 6aa6 383f
000003a0: 938a ec3d 9120 333e d25a ae3d 8cc8 e3be
000003b0: 25ec 553e 3777 e13e 9c6d 7d3e 6530 c13e
000003c0: 9249 49bf 1b9e 553d 87bc e4bd 2bb0 2ebe
000003d0: 514e 0b3f 750e 42be fd39 573f fbb7 003f
000003e0: 71e0 c23e a25d 423e 8474 4c3e 0c80 96be
000003f0: 42ed 053f 09e7 a03e 79a7 c63c d62b 6bbe
0.15461138 0.19687301 0.37600222 0.60026366 0.27803373 0.085057825 0.53485155 0.54304683
0.10940552 0.5594382 0.10400262 0.9982331 0.21134104 0.20758292 0.20810801 0.47611305
0.27997494 0.4536751 0.23844577 -0.10455611 0.3178949 0.61898816 0.48754802 0.29733846
0.21892701 -0.040828623 0.65617144 0.53282964 -0.25442198 -0.22921185 0.33306882 0.8214904
0.23423682 0.24422729 -0.20643826 0.16447884 -0.35958472 0.19414113 -0.36476234 1.0664533
0.20476177 0.046356473 0.40050083 -0.14939441 -0.008297212 0.35715368 0.7953038 0.05036903
-0.03426645 -0.11009452 0.08528766 -0.15052283 0.13260855 -0.13000488 0.61299646 0.115088
0.2939098 -0.08545727 0.055509955 -0.3308214 0.44082156 0.22850142 -0.13090742 -0.48194167
0.084430456 0.7311866 0.38586575 0.26449493 0.17813392 0.4252234 0.4217248 0.48264596
0.44079098 -0.08860034 0.14713639 1.0131925 0.20713149 -0.0038996537 0.09477121 -0.12724648
0.315963 0.47670078 -0.14681645 -0.4283867 0.6410532 0.14197923 0.58756447 0.10955923
0.34314936 0.11233269 0.61960095 0.34544224 -0.070371024 0.3935246 -0.45136347 1.0833851
0.1919078 -0.0016307677 -0.45963028 0.52451724 -0.6186985 0.18476003 -0.14339772 0.36179692
0.1692249 -0.17946734 -0.022410411 0.0010880088 0.42434755 0.31911606 -1.2650548 0.06117011
0.09316976 -0.19273415 -0.6592218 0.21640594 0.02738151 -0.061648943 0.9501245 -0.01850459
0.14492944 -0.3707203 -0.13847452 0.33412635 0.20564413 0.32652912 -0.2248515 -0.2627595
-0.06553845 0.28420827 -0.01707177 0.24229065 -0.30017188 0.27057022 0.04159673 -0.3568008
0.02381817 0.4724481 0.13670842 -0.2846673 0.013216537 0.047819447 0.30538517 0.008183241
0.23477924 -0.46117103 0.07970334 -0.049005125 0.11204858 -0.099379785 0.42263854 -0.10934026
-0.2245078 -0.1023855 -0.07004014 -0.08485749 -1.8693101 0.55837435 -0.0731259 -0.032665957
0.07036013 -0.21391807 -1.3656565 -0.45915315 -0.726643 0.18579796 0.39474133 -0.389681
-0.03712047 -0.06613913 0.51728827 0.53022933 1.2506758 -1.2367007 -0.3421312 0.5624148
1.0202242 0.8871978 -0.27106962 -0.8643344 -0.27072352 -0.030066963 0.039256584 -0.3712709
0.12069536 0.22301659 -0.16872932 0.3205268 0.5242287 0.15980692 0.03488152 0.18556692
-0.027954351 0.2990917 0.2304013 0.30384952 0.5167512 0.4196896 0.52575004 0.4479104
0.44876075 -0.0026526114 0.1734609 0.5205448 -0.005861362 0.26910046 0.17667177 0.60424864
0.4154337 0.29782486 0.19035405 -0.2611796 0.31649724 0.45123476 0.28939936 0.39523742
0.42181128 0.03363566 0.6402171 0.766599 -0.14572126 -0.20083655 0.3830842 0.68230987
0.20174022 -0.05828407 0.06619298 0.2663875 -0.7681338 0.38192338 0.31958658 0.7212893
0.115498684 0.17492892 0.08513416 -0.44488943 0.20890863 0.44036266 0.24748844 0.37732235
-0.78627884 0.052152734 -0.11168771 -0.1705939 0.54416376 -0.18950827 0.8407286 0.5028073
0.3806186 0.1898103 0.19966322 -0.29394567 0.5231515 0.31426266 0.024249779 -0.22965941

fc2.bias f4 [64]
00000000: e0b9 e23c 5034 a7be fed7 7bbe 9efc d03d
00000010: 762c d33d 6f44 b23c ea72 f5bc 8fd4 2c3e
00000020: bcc2 e33e a0d5 efbd 5a08 ddbd 8ed1 06be
00000030: d821 d63d d426 9ebe b244 4a3e 9c1e 6c3f
00000040: 0ffd b63d cffc 923d 6354 553d 915a 553d
00000050: 819e abba aa46 29bd e072 1b3d f45b e4bd
00000060: b685 69bd 5a17 14be 7568 cebd 11e7 c6be
00000070: a5e0 783d 6f8f 96bd 2dc3 ce3e 77ab f63e
00000080: 625f bcbe 1b1e 113d 18cb 9abd cb5a f9bd
00000090: bb81 393d 12f0 303d f895 1fbe 5637 8d3d
000000a0: e833 de3c f012 2ebe a9a2 243e d4a0 dc3d
000000b0: 1c26 d8bd 1fbe 673d 1c16 dabd 30bb 873d
000000c0: b843 adbc 6ea2 90be a020 ad3d 0cfa 6cbd
000000d0: 3d8b dbbd 464e c53d f511 383d 77a9 58bd
000000e0: d322 413c caa6 21be 3d8c 4bbd 1979 a4bc
000000f0: b38d 2ebe 4017 d5be 80af 5e3f 9e89 05b9
0.027676523 -0.326571 -0.24594113 0.10204433 0.103112146 0.021761147 -0.029962022 0.1687796
0.44484508 -0.117106676 -0.107926086 -0.13165876 0.10455674 -0.30888999 0.19752768 0.92234206
0.08934986 0.07177126 0.05208243 0.052088324 -0.0013093502 -0.041327156 0.03795135 -0.11150351
-0.057012282 -0.14462033 -0.10078517 -0.38848165 0.060761113 -0.073515765 0.40383282 0.48177692
-0.3679152 0.0354291 -0.07558268 -0.121755205 0.045289736 0.0431977 -0.15584552 0.0689532
0.02712436 -0.16999412 0.16077675 0.10772863 -0.10554144 0.056577798 -0.10648748 0.066275
-0.021150455 -0.28248924 0.08453488 -0.05785565 -0.10719917 0.0963407 0.044939 -0.05289599
0.011788088 -0.15786281 -0.04969429 -0.020077275 -0.17046241 -0.416193 0.8698654 -0.00012735135

fc3.weight f4 [4, 64]
00000000: f356 c5be f25d ccbe 00b3 263f c3dc cabe
00000010: 97db 9abe 7f7f e9be 2588 343d b22b e7be
00000020: ac28 b83f 1a04 b83c 0cc7 eabe e15f 2fbd
00000030: f18e acbe 8021 0bbf 27b4 603f 7d76 a53f
00000040: b712 b53f 6a18 bbbe a9fd 3f3f 84b8 b1be
00000050: 3a2d b3be 5ad2 9e3d 88f4 58be 5226 e8bc
00000060: 109d c9be ba44 ce3d df15 ad3d db6b 0ebf
00000070: a33f c7be 016b 0cbf ca74 fe3f 054f 793f
00000080: 67d3 80bf 9ede bdbe 53eb bcbe 6840 dcbd
00000090: 06b9 78be b733 a8be a892 59bc 2e28 99be
000000a0: 9d24 b2be b60a eebe 1990 35be 1999 9a3f
000000b0: c31c 233d 1e8c 7fbd 4895 683d c12d aabe
000000c0: 2807 f2be e816 cabd b23d adbe 3f9a 88be
000000d0: c14e 17be 1f2f 78be a5e7 a5be a8ea 0e40
000000e0: 8479 efbe 5368 2bbf 6aac 02bf 1b31 adbe
000000f0: 8e00 09bf 0db2 fabe 69d9 b43f bbdb c9be
00000100: 2dce 10be f178 54bf cee0 993f eb9d ddbe
00000110: 794c d1be faaf dcbe 0d1a d7bc 8ccf a9be
00000120: fde0 e23f 5453 83bd c93f f9be 5c9f 65bd
00000130: 815b 833e 8eb2 05be 140d 2f3f a495 bd3f
00000140: b68e 783f e3a5 06bf c8d9 c13e fe4a e8be
00000150: e855 a2be a349 eb3d a776 81be e5a7 4cbd
00000160: 96a4 ddbe 687c 8f3d 2b4c 1e3d a3a4 8ebe
00000170: 5a4d ecbe 9e76 eebe c902 a43f dada 6f3f
00000180: f298 fcbe e93f 2bbf c1c8 d1be cc87 ff3d
00000190: c8a6 16bf 5e51 03bf 4c34 803d fe14 d83d
000001a0: 56f5 0fbf ed4d 3abf 5c88 1cbf cd80 9d3f
000001b0: aa3a 9fbd 1392 64bc ccfa d03d b20b 11bf
000001c0: cc74 dabe 7567 37bf 643c b5be a22b 26be
000001d0: 2a16 d13d f374 5abe f250 bdbe 891c 1440
000001e0: 556c febe 7916 e7be ba60 8dbe ec9b 00bf
000001f0: 51e5 f4be 2dc9 f5be 9894 cb3f 5da3 c4be
00000200: 778e 02bf b90e 7fbe 9713 76bf e8dd 6ebd
00000210: d4e9 403e a921 06be 2ce8 233c 5a99 17bf
00000220: 5db6 0840 aadd 983d 0065 a5be 1b2b 9e3c
00000230: c6f6 4a3f a309 02bf fb19 4e3f e0c5 a13f
00000240: c891 873f 90b9 0bbf 4deb 7abf 6cda cbbe
00000250: ddbe c53d ad4c 883d cbb8 e8be 19f7 8e3c
00000260: 1384 99be 2a8c de3d 99cc dabd bc0e 1fbf
00000270: 266e cfbe 6bc0 f8bd e999 ba3f 2346 903f
00000280: fc19 c8be b717 ddbe 3026 63be 9032 4fbd
00000290: b42c 2bbe 43b7 a6be 42a2 163d ec30 85be
000002a0: 180a bfbe 4cfe 25bf 2469 ddbe 9976 ad3f
000002b0: 6161 7b3c 8526 0dbd d66e 98bd 0575 cfbe
000002c0: c1aa 79be 6d2c f3be 4237 04bf 1216 08bf
000002d0: 22f7 8ebf 0da9 1cbf 1b1d 51be 584f f83f
000002e0: a292 a9bd 4fad d5be ffd7 0ebf cb40 07bd
000002f0: bff4 79be 9b17 54be 1175 b53f 4a62 d2be
00000300: 344c a6be dc9e 19be f6a8 453e c702 f5be
00000310: ad71 afbe 8f31 b6be 773c 033d 71cb 18bf
00000320: f0ea f53f f0bc 33bd d37f c0be 70f9 173d
00000330: 482f adbe 7cbc fdbe 5bd7 993f be7b d73f
00000340: c35f b23f 7ebb 3cbe 36a2 373f 3b0a dcbe
00000350: 5cf2 c7be 668f 97bd d774 93be d5d1 673c
00000360: 60c6 b7be 848e 823d 7ae2 88bd 3e43 b1be
00000370: f066 e5be 44ee ebbe e52b f43f 0b09 003f
00000380: c3de dbbe 02e3 16be 5fc5 efbe 32c1 75bd
00000390: a13c 3cbe 11c8 c7be 8299 67bd f27c 08bf
000003a0: f248 a4be a566 eabe 1784 2bbe f132 583f
000003b0: 5e85 d23d 71a7 81bd 1868 2d3d 54e0 c5be
000003c0: 7d70 cbbe d639 80be 57be 07bf 2088 a2be
000003d0: e536 143e 315f 31be 101a 08bf 8ac1 0940
000003e0: 3f06 f7bd efc3 0ebf 7fb1 fabe a4d9 b8be
000003f0: 508b a8be c739 1cbf cb3b a73f 09cd 9ebe
-0.385429 -0.39915425 0.6511688 -0.39621553 -0.3024566 -0.45605084 0.04407515 -0.45150524
1.4387412 0.022462893 -0.45854986 -0.042816047 -0.33702806 -0.5434799 0.8777489 1.2926785
1.4146336 -0.36542064 0.7499643 -0.34711087 -0.34995443 0.07754965 -0.21187031 -0.028338585
-0.39377642 0.10071702 0.08451437 -0.55633324 -0.38915738 -0.54850775 1.9879391 0.973862
-1.0064515 -0.37083906 -0.36898288 -0.10754472 -0.24289331 -0.32851955 -0.0132795945 -0.29913467
-0.3479356 -0.46492547 -0.1773075 1.2077972 0.03982235 -0.062389486 0.05678299 -0.33238032
-0.47271085 -0.0986765 -0.33836132 -0.2668018 -0.14776136 -0.24236725 -0.32403293 2.2330723
-0.46772397 -0.6695606 -0.51044333 -0.33826527 -0.5351647 -0.48963967 1.4128848 -0.39425454
-0.1414115 -0.8299704 1.202173 -0.43284544 -0.40878657 -0.4310301 -0.02625754 -0.33166158
1.7724911 -0.06412378 -0.48681477 -0.05606018 0.2565575 -0.13056394 0.6837933 1.4811292
0.9709276 -0.52596873 0.37861466 -0.45369714 -0.31706166 0.114886545 -0.25285837 -0.049964804
-0.43289632 0.070061505 0.03864686 -0.27859983 -0.46152765 -0.46574873 1.281335 0.93693316
-0.49335438 -0.66894394 -0.40973476 0.12477073 -0.5884824 -0.5129603 0.06259975 0.10550879
-0.5623373 -0.72775155 -0.6114557 1.2304932 -0.07774861 -0.013950842 0.10204086 -0.5665847
-0.42667234 -0.7164224 -0.35397637 -0.16227582 0.102093056 -0.21333675 -0.3697582 2.3142416
-0.49692026 -0.45134333 -0.2761286 -0.5023792 -0.47831205 -0.48005047 1.5904722 -0.38405886
-0.50998634 -0.2490796 -0.9612364 -0.058317095 0.18839198 -0.13098778 0.010004085 -0.5921837
2.1361306 0.07464154 -0.3230362 0.019307664 0.79282796 -0.50795954 0.80508393 1.2638512
1.0591364 -0.5458002 -0.9801529 -0.3981508 0.09655545 0.0665525 -0.45453486 0.01745181
-0.29983577 0.10866578 -0.10683555 -0.6213186 -0.40513724 -0.12146076 1.457822 1.1271404
-0.39082325 -0.43182155 -0.22182536 -0.05058533 -0.16716272 -0.32561693 0.036775835 -0.26013887
-0.37312388 -0.6484115 -0.43244278 1.3551818 0.015343041 -0.034460563 -0.07443015 -0.40518966
-0.24381544 -0.47494832 -0.51646817 -0.53158677 -1.1169169 -0.6119545 -0.20421259 1.9399214
-0.08279921 -0.41733786 -0.55798334 -0.033020776 -0.2440977 -0.2071213 1.4176351 -0.41090614
-0.32480013 -0.15002006 0.19302735 -0.4785368 -0.34266415 -0.35584685 0.032040086 -0.59685427
1.9212322 -0.043881357 -0.37597522 0.037103117 -0.33825135 -0.49557865 1.2018846 1.6834638
1.3935474 -0.18430898 0.7173189 -0.42976555 -0.39052093 -0.07400398 -0.2880008 0.014149149
-0.35893536 0.06374839 -0.06683822 -0.34621614 -0.44805098 -0.4608022 1.9075896 0.500138
-0.4294339 -0.14735034 -0.4683027 -0.0599987 -0.18382503 -0.39019826 -0.05654288 -0.5331565
-0.32086903 -0.45781437 -0.16749607 0.8445273 0.10279344 -0.06330765 0.0423356 -0.3864771
-0.3973426 -0.25044125 -0.5302481 -0.3174448 0.14474066 -0.17321469 -0.5316477 2.1524377
-0.12061738 -0.5576772 -0.48963544 -0.36103547 -0.32918787 -0.6102566 1.3065122 -0.31015804

fc3.bias f4 [4]
00000000: deb9 823e 8ef2 eb3b 5e14 6c3e cc0b 20be
0.2553243 0.0072005456 0.23054644 -0.156295
